scheduler_1_wzl/models/face_detection_cpu_edge.pth (torch, 3535 bytes, 7 tensors)

fc1.weight f4 [10, 3]
0.22048226 0.8615207 0.87509555 0.38044447 0.22932954 -0.65259063 -0.57386816 0.441328
0.17777237 -0.47465217 0.04311025 -0.14828897 -0.092255205 0.38824654 -0.40633392 0.05889375
-0.17207952 0.30179495 -0.10523846 -0.14555804 -0.17296018 0.44870827 -0.5821423 0.17094588
0.112081535 -0.4927577 0.46165478 0.28497446 -0.7485217 -0.030005774
00000000: 1ac6 613e 9f8c 5c3f 4306 603f 9ec9 c23e
00000010: 5dd5 6a3e 2e10 27bf 06e9 12bf bef5 e13e
00000020: f609 363e 9c05 f3be 6094 303d 10d9 17be
00000030: 4cf0 bcbd 40c8 c63e 000b d0be 933a 713d
00000040: 9d35 30be de84 9a3e 4387 d7bd 2b0d 15be
00000050: 791c 31be 17bd e53e 4707 15bf 700c 2f3e
00000060: 018b e53d bd4a fcbe 045e ec3e 2ce8 913e
00000070: 1e9f 3fbf abce f5bc

fc1.bias f4 [10]
-0.20778826 -0.5502115 0.12749054 -0.23069942 0.19314364 0.16262022 0.13765275 0.19208494
-0.29727304 0.2924409
00000000: 72c6 54be a9da 0cbf e18c 023e 783c 6cbe
00000010: 72c7 453e ea85 263e d8f4 0c3e eab1 443e
00000020: 2c34 98be d0ba 953e

fc2.weight f4 [10, 10]
-0.502028 0.09168162 0.42657006 0.31590986 -0.5875185 -0.022850096 0.3069713 0.25388873
-0.61222863 -0.23054926 -0.4810149 -0.016618136 -0.3735559 0.3213262 0.56061345 -0.3682175
0.47873092 0.19828598 -0.12153736 0.41456422 -0.52848834 -0.21606013 -0.22151926 -0.40912074
-0.5314722 0.4763679 -0.080430694 0.18558538 0.2841926 0.2023073 -0.037013553 0.08739229
-0.09677568 -0.054679096 -0.23091036 0.3041957 -0.4475371 -0.3878598 0.06209407 -0.2937942
-0.5268205 0.26187822 -0.17754331 0.43195593 -0.14775528 0.06016734 0.068284206 -0.1623249
0.33437115 -0.34253603 -0.46673906 0.13639528 -0.08318333 -0.02059269 0.1373293 0.12025172
0.012867986 0.036855917 0.116190195 0.18967205 -0.5414035 0.20015845 0.19577043 0.517002
0.0604507 -0.029520981 -0.1797867 -0.1282355 -0.0453527 0.63615423 -0.51239306 0.14983629
-0.1530925 0.5200558 0.39585528 0.61486655 -0.511923 -0.1516405 -0.0959267 -0.0040325415
-0.3966084 0.27758986 0.2810015 0.27199614 -0.041637108 0.30179003 0.33896327 -0.22569838
0.19472034 0.29823866 -0.016997918 -0.32671118 -0.52786696 -0.05451581 -0.66624105 0.41918474
0.3296092 -0.5619316 0.2577856 0.058566947
00000000: e884 00bf 93c3 bb3d 6467 da3e f0be a13e
00000010: 9d67 16bf 2030 bbbc 582b 9d3e b4fd 813e
00000020: 04bb 1cbf 1b15 6cbe 9647 f6be c222 88bc
00000030: b842 bfbe de84 a43e 5d84 0f3f 0187 bcbe
00000040: 381c f53e 7b0b 4b3e 94e8 f8bd c341 d43e
00000050: 034b 07bf de3e 5dbe f2d5 62be 4678 d1be
00000060: 900e 08bf 7ee6 f33e d9b8 a4bd 180a 3e3e
00000070: b181 913e a529 4f3e 869b 17bd bbfa b23d
00000080: 5432 c6bd 30f7 5fbd c473 6cbe 8abf 9b3e
00000090: 9523 e5be 8f95 c6be 5a56 7e3d 326c 96be
000000a0: b5dd 06bf e714 863e eacd 35be 5429 dd3e
000000b0: 294d 17be 0772 763d 97d8 8b3d 8038 26be
000000c0: b232 ab3e e260 afbe 6cf8 eebe 34ab 0b3e
000000d0: 065c aabd 00b2 a8bc 0da0 0c3e 8946 f63d
000000e0: 3fd4 523c 3bf6 163d 20f5 ed3d 6439 423e
000000f0: 6b99 0abf 56f6 4c3e 0b78 483e 3e5a 043f
00000100: 279b 773d fcd5 f1bc 011a 38be 2b50 03be
00000110: c1c3 39bd 01db 223f 312c 03bf af6e 193e
00000120: 48c4 1cbe 6022 053f 8bad ca3e e567 1d3f
00000130: 630d 03bf a647 1bbe 3875 c4bd 6923 84bb
00000140: 4210 cbbe 4220 8e3e 6edf 8f3e 1443 8b3e
00000150: ac8b 2abd 3984 9a3e 988c ad3e 7a1d 67be
00000160: c564 473e bdb2 983e 383f 8bbc b046 a7be
00000170: 4a22 07bf f84b 5fbd c68e 2abf 629f d63e
00000180: 89c2 a83e c0da 0fbf 79fc 833e e5e3 6f3d

fc2.bias f4 [10]
-0.1592358 -0.46299317 -0.36795306 -0.10993219 -0.12586464 -0.18979824 -0.07119085 -0.04027149
-0.22830467 -0.16484559
00000000: b60e 23be 710d edbe 5864 bcbe 2124 e1bd
00000010: a9e2 00be 785a 42be 82cc 91bd b8f3 24bd
00000020: b3c8 69be 48cd 28be

fc3.weight f4 [10, 10]
-0.04397711 -0.34869927 -0.00744991 -0.06107159 -0.2701669 0.066113874 0.33990228 0.31252968
0.5667182 -0.3447424 -0.12509765 0.6903774 -0.2061301 -0.53437525 -0.12451109 -0.04483681
0.029944262 -0.11006597 -0.44741625 0.23682383 -0.16608694 -0.56315356 0.17823091 -0.078922756
0.33385164 -0.43117055 -0.56635934 0.29149944 0.3086363 0.11265334 -0.3974049 0.19028722
-0.17170224 0.54323643 -0.13996944 -0.06826517 0.31964052 0.2833174 0.6293604 0.38673818
0.29410425 0.18639813 -0.43056944 -0.23066807 -0.21559867 0.32100302 0.16533178 -0.46719718
0.13327008 0.3489131 -0.5843047 -0.14022718 -0.1311631 -0.17113218 -0.26373464 -0.4631754
0.33254787 0.60510874 0.12082182 0.4006083 -0.16956738 -0.42554533 -0.031456687 0.16025107
0.31508076 0.24269998 -0.6685656 0.22308435 0.3969483 -0.093022846 -0.08711913 0.1723031
0.5474704 -0.04053312 0.12976086 -0.79686505 -0.14145851 0.30743894 -0.56073135 0.1803809
0.46977365 -0.0003443226 0.12720183 0.2936998 -0.332379 -0.4278238 -0.18848398 -0.1870583
-0.49606115 0.21278886 -0.4386907 0.21869944 0.5574768 -0.42601427 -0.44541067 -0.4526593
0.12009616 0.8906914 -0.3106731 0.3068276
00000000: 5821 34bd b688 b2be 601e f4bb 3426 7abd
00000010: 5153 8abe b666 873d ac07 ae3e e403 a03e
00000020: 7214 113f 1382 b0be 9919 00be 93bc 303f
00000030: c513 53be d1cc 08bf acff febd cea6 37bd
00000040: ab4d f53c 446a e1bd be13 e5be f281 723e
00000050: b212 2abe d52a 10bf 2a82 363e 41a2 a1bd
00000060: 9aee aa3e 63c2 dcbe edfc 10bf 6a3f 953e
00000070: 9405 9e3e cbb6 e63d a878 cbbe a7da 423e
00000080: b6d2 2fbe 8b11 0b3f 2654 0fbe 9cce 8bbd
00000090: eca7 a33e fa0e 913e c31d 213f 8c02 c63e
000000a0: d594 963e 27df 3e3e 9973 dcbe 4034 6cbe
000000b0: e6c5 5cbe 825a a43e bc4c 293e 7834 efbe
000000c0: f477 083e bda4 b23e fe94 15bf b797 0fbe
000000d0: 9f4f 06be 463d 2fbe 3a08 87be 5325 edbe
000000e0: b743 aa3e 68e8 1a3f 6e71 f73d 881c cd3e
000000f0: 12a3 2dbe 14e1 d9be bad8 00bd db18 243e
00000100: 4452 a13e 5886 783e 1d27 2bbf 3970 643e
00000110: cf3c cb3e c382 bebd 846b b2bd 3970 303e
00000120: 0527 0c3f 0f06 26bd 08e0 043e 59ff 4bbf
00000130: 80da 10be a368 9d3e 178c 0fbf c5b5 383e
00000140: 2c86 f03e 3286 b4b9 3241 023e d25f 963e
00000150: 952d aabe b90b dbbe f201 41be 368c 3fbe
00000160: bafb fdbe 53e5 593e 119c e0be bff2 5f3e
00000170: cdb6 0e3f 8b1e dabe de0c e4be f6c2 e7be
00000180: faf4 f53d 5a04 643f 8b10 9fbe 8218 9d3e

fc3.bias f4 [10]
-0.14212775 -0.11239554 -0.17903435 -0.17326343 -0.1341912 0.17965208 -0.010903556 -0.074307695
0.09077883 0.19954929
00000000: f089 11be a22f e6bd c854 37be f86b 31be
00000010: 6b69 09be b7f6 373e d4a4 32bc a22e 98bd
00000020: 40ea b93d a656 4c3e

fc4.weight f4 [1, 10]
-0.049795963 -0.17444275 -0.041218027 -0.22802278 0.5005088 0.06017104 0.42802832 -0.39471656
0.25532904 0.24009283
00000000: daf6 4bbd 1fa1 32be 3cd4 28bd ce7e 69be
00000010: 5821 003f e975 763d 8726 db3e 4a18 cabe
00000020: 7dba 823e e5da 753e
