scheduler_1_wzl/models/face_detection_mem_server.pth (torch, 3535 bytes, 7 tensors)

fc1.weight f4 [10, 3]
0	0x3e95da55	0.29268137
1	0x41ab35aa	21.401203
2	0x3ea19cc4	0.31564915
3	0xbf207c4e	-0.62689674
4	0xbebb277f	-0.3655357
5	0xbe8ec718	-0.2788627
6	0xbf5f3098	-0.87183523
7	0x41b273d5	22.306559
8	0x3e5918c6	0.21200857
9	0xbd3a62e9	-0.045504484
10	0x41ae6f9b	21.804495
11	0x3d81482f	0.06312596
12	0x3f17b0b6	0.59254014
13	0x41ab8504	21.439949
14	0x3deb1a00	0.114795685
15	0x3eb77769	0.3583329
16	0x41b07434	22.05674
17	0x3ef27b5e	0.47359747
18	0xbda6d02e	-0.08145176
19	0x41b3c96a	22.473347
20	0x3f34b04f	0.70581526
21	0xbcc16979	-0.023609864
22	0xbf32cae5	-0.6984084
23	0xbe25ba58	-0.16184366
24	0xbea843c2	-0.32864195
25	0xbebaa4db	-0.364539
26	0xbe88cddf	-0.26719567
27	0xbe1c8217	-0.15284
28	0x41a7d16f	20.977262
29	0x3e3073a9	0.17231621

fc1.bias f4 [10]
0	0x41b0ed79	22.115953
1	0x3e845da2	0.25852686
2	0x41b21b4e	22.263332
3	0x41ae84fb	21.814932
4	0x41aa8e5b	21.31951
5	0x41aecca5	21.849924
6	0x41b1b1d4	22.21183
7	0xbeee0aab	-0.46492514
8	0xbcc0d1e0	-0.023537576
9	0x41ad07a7	21.628736

fc2.weight f4 [10, 10]
0	0x4151bdb0	13.10881
1	0xbedcd710	-0.4313283
2	0x416cdb28	14.803505
3	0x4157c4f5	13.485585
4	0x41502d4e	13.011061
5	0x4154124e	13.254469
6	0x416057ac	14.021404
7	0xbe788df2	-0.24272898
8	0x3ede9be2	0.43478304
9	0x4165fa99	14.373681
10	0xbf1d6419	-0.6148086
11	0xbd502eb8	-0.050825804
12	0x3e989da8	0.29807782
13	0xbef795df	-0.4835653
14	0x3e988bff	0.2979431
15	0xbddca655	-0.10773913
16	0xbe5bef90	-0.21478105
17	0xbe6ef20b	-0.2333452
18	0x3f06d7b0	0.52672863
19	0xbdd2db1e	-0.102956995
20	0x4155cdcc	13.362743
21	0xbe9f082d	-0.31060925
22	0x41749b8d	15.287976
23	0x415d61eb	13.836406
24	0x41541d13	13.257098
25	0x4152e836	13.181692
26	0x41640a86	14.252569
27	0xbea15a02	-0.31513983
28	0x3e43e1a8	0.1912905
29	0x415e804e	13.906324
30	0x4151dd1a	13.11648
31	0x3e1ad360	0.15119696
32	0x416871e5	14.527806
33	0x415f9ad0	13.975296
34	0x415ca64b	13.790599
35	0x415f03fa	13.938471
36	0x4163c16e	14.234724
37	0xbe2be056	-0.16784796
38	0xbc2b2c00	-0.010447502
39	0x415cc07a	13.796991
40	0x3e5c30c4	0.21502978
41	0x3f05f280	0.5232315
42	0xbd9a28a3	-0.07527282
43	0x3e41ff63	0.18945079
44	0xbf042bd0	-0.5162935
45	0x3e2fa676	0.17153344
46	0xbe9c5e74	-0.30540812
47	0xbf0bb6ec	-0.5457599
48	0xbde82604	-0.11335376
49	0x3e9b3696	0.30315083
50	0xbd3dcee8	-0.0463399
51	0xbef00f40	-0.46886635
52	0x3e9c9397	0.30581352
53	0xbefd2f69	-0.49450234
54	0xbe865192	-0.26234108
55	0xbe001035	-0.12506182
56	0xbde5a39a	-0.11212845
57	0x3ec648eb	0.38727507
58	0x3de9c3f8	0.11414331
59	0x3dfc9c72	0.12334527
60	0xbecfae76	-0.4056279
61	0xbe8da776	-0.27666825
62	0x3e31a210	0.17346978
63	0xbd8042b4	-0.062627226
64	0x3e2d8a1c	0.16947216
65	0xbed98384	-0.4248315
66	0xbe0cd9d0	-0.13754964
67	0x3f06f8b2	0.5272323
68	0x3e234cfc	0.15947336
69	0x3def86e0	0.11695647
70	0x415ddd21	13.866487
71	0x3eac03d2	0.33596665
72	0x4165a72f	14.353316
73	0x4161b3c5	14.106389
74	0x415d7276	13.840445
75	0x415abb12	13.670671
76	0x4163ddd3	14.241656
77	0xbc6852a4	-0.014179859
78	0xbed87b02	-0.42281348
79	0x4159bc4e	13.608473
80	0x415bc064	13.73447
81	0x3eb3c20c	0.35108984
82	0x4174274d	15.259595
83	0x415ed854	13.9278145
84	0x4152d5ee	13.177229
85	0x4156df8d	13.429578
86	0x41661c25	14.381871
87	0x3b9918e2	0.0046721557
88	0x3e5de0c8	0.21667778
89	0x41614670	14.079697
90	0x415f8d06	13.97193
91	0x3eda6f16	0.42662877
92	0x41690309	14.563241
93	0x4164855c	14.282558
94	0x415f3b7b	13.952022
95	0x415fdbff	13.99121
96	0x415c0c84	13.753056
97	0x3eb152f5	0.34633604
98	0x3e43b758	0.19112909
99	0x415ad9d3	13.67818

fc2.bias f4 [10]
0	0x4189ecaa	17.240559
1	0xbe81c160	-0.25342846
2	0x418ae423	17.361395
3	0x41884b3b	17.036734
4	0xbeb2e044	-0.34936726
5	0xbebd5b26	-0.36983603
6	0x3e82ae95	0.2552382
7	0x418980d1	17.187899
8	0x41880240	17.001099
9	0x4186df27	16.858961

fc3.weight f4 [10, 10]
0	0xbe947d0d	-0.29001656
1	0xbe252f2f	-0.1613128
2	0x3dfe36c7	0.12412792
3	0xbeb04b36	-0.3443238
4	0x3c9d045c	0.019167118
5	0xbd3777ae	-0.04479187
6	0x3e9c2858	0.3049953
7	0xbd88241e	-0.06647514
8	0xbe0140a5	-0.12622316
9	0xbef7dbf9	-0.48410013
10	0x3e445d38	0.19176185
11	0x3e465a9c	0.19370502
12	0xbf0af9de	-0.5428752
13	0xbefc3a26	-0.49263114
14	0x3dedbf30	0.11608732
15	0xbf17e0b1	-0.59327227
16	0x3efcaf94	0.49352705
17	0xbf035da7	-0.5131478
18	0xbea414f5	-0.3204724
19	0xbeea8412	-0.45803887
20	0x3e1328bf	0.14371012
21	0x3e0bfb06	0.13669977
22	0xbea9cab6	-0.3316247
23	0x3d4b4b70	0.04963249
24	0xbc68791f	-0.014189034
25	0x3e95573c	0.29168117
26	0xbebe5718	-0.37175822
27	0xbe87e7b6	-0.2654397
28	0xbf10dbb2	-0.5658523
29	0x3c749b98	0.014929675
30	0x41697df8	14.593254
31	0xbc1bc561	-0.009507508
32	0x4168d86f	14.55284
33	0x416a24d1	14.633988
34	0x3ecf88f7	0.40534183
35	0x3e82e51c	0.25565422
36	0x3e9dd576	0.3082692
37	0x415d806b	13.843852
38	0x41606fcf	14.027297
39	0x4160c653	14.048419
40	0x4165d319	14.3640375
41	0xbe7d8d47	-0.24760924
42	0x4161f075	14.121205
43	0x4167311a	14.449488
44	0xbdff8cf0	-0.124780536
45	0x3e8d25d7	0.27567932
46	0x3e96d074	0.29455912
47	0x4167cdcc	14.487743
48	0x415ed601	13.927247
49	0x416626c5	14.384465
50	0x41667893	14.404437
51	0x3ed1ce94	0.4097792
52	0x4168a33a	14.53985
53	0x4166b52c	14.419231
54	0xbe294643	-0.16530709
55	0xbe6585cf	-0.22414325
56	0x3e013a58	0.12619913
57	0x41678ab7	14.471366
58	0x4167e5c2	14.493593
59	0x4162664f	14.149978
60	0x416773d9	14.465783
61	0xbe99de2f	-0.30052325
62	0x4161a6ed	14.103253
63	0x415c83b6	13.782156
64	0x3dead0d3	0.11465611
65	0x3e8b1ce1	0.2717047
66	0x3d81ee90	0.0634433
67	0x4160811b	14.03152
68	0x4166bf1c	14.421658
69	0x4160cc51	14.049882
70	0xbf00b8c6	-0.5028194
71	0x3e745a70	0.23862624
72	0xbec8821d	-0.3916177
73	0x3c6c7880	0.014433026
74	0xbf03fbe6	-0.5155624
75	0x3e04473c	0.12917799
76	0xbe17de5c	-0.14830917
77	0xbeef7c30	-0.46774435
78	0xbea10ad2	-0.31453568
79	0xbe87949d	-0.2648057
80	0xbeb46a15	-0.35237184
81	0xbf107eda	-0.5644356
82	0xbf1c1a19	-0.6097732
83	0x3d65eb2c	0.05613248
84	0xbed64ff8	-0.41857886
85	0x3cbd51c0	0.02311027
86	0x3ef6b464	0.48184502
87	0xbdba380a	-0.0909272
88	0xbe770d11	-0.24126078
89	0xbe5d7c4e	-0.2162945
90	0xbe94e6a6	-0.2908222
91	0x3e3bcbf4	0.1833952
92	0xbea33e78	-0.31883597
93	0xbe8b20cd	-0.27173463
94	0xbeb60de0	-0.3555746
95	0x3ee19d76	0.44065446
96	0xbd5a9ba0	-0.05337107
97	0xbec783dc	-0.38967788
98	0xbf0b845d	-0.54498845
99	0xbefa3ccb	-0.48874506

fc3.bias f4 [10]
0	0x3dca1fd4	0.09869352
1	0xbe10dafe	-0.14146039
2	0xbe414b4f	-0.18876384
3	0x414322ee	12.196028
4	0x413e13d7	11.879844
5	0x4145dfc7	12.367133
6	0x4142032a	12.125772
7	0xbdffa610	-0.12482846
8	0xbed3289c	-0.4124192
9	0xbc529600	-0.012853146

fc4.weight f4 [1, 10]
0	0xbec3b8d2	-0.38226944
1	0xbed4c3da	-0.41555673
2	0xbebc4314	-0.36769927
3	0x41655584	14.333378
4	0x4169af4a	14.605295
5	0x4167c66b	14.485942
6	0x4168d496	14.551901
7	0x3eccdb9a	0.40011293
8	0xbf0aa985	-0.54164916
9	0x3f368cb3	0.7130844
