scheduler_1_wzl/models/face_detection_proc_delay_cloud.pth (torch, 2263 bytes, 5 tensors)

fc1.weight f4 [5, 2]
0	0xbf2f98bc	-0.6859243
1	0xbf12e9ee	-0.573882
2	0xbe898081	-0.26855853
3	0x3f46236d	0.77397805
4	0x3de0dd66	0.109797284
5	0xbd37249d	-0.04471265
6	0xbee39fb6	-0.44457787
7	0xbd258120	-0.040406346
8	0xbc237bcd	-0.009978247
9	0x3ee7eaf0	0.4529643

fc1.bias f4 [5]
0	0x3e8b5caa	0.27219135
1	0x3f1eabf5	0.61981136
2	0xbe1a759c	-0.15083927
3	0xbefc07b1	-0.49224618
4	0xbedf1418	-0.43570018

fc2.weight f4 [5, 5]
0	0xbd0e2990	-0.034707606
1	0xbea49ea3	-0.3215228
2	0xbe98cc9f	-0.29843614
3	0x3f0561e8	0.5210252
4	0xbf819c81	-1.0125886
5	0x3ed4f558	0.41593432
6	0x3e801c71	0.250217
7	0x3f3ad910	0.7298746
8	0xbed691dc	-0.41908157
9	0xbedb253f	-0.42801854
10	0x3ecd6610	0.4011693
11	0xbdd1ca3e	-0.10243653
12	0x3ef6a652	0.48173767
13	0xbf38640e	-0.7202767
14	0x3ec863fc	0.39138782
15	0xbf12a86c	-0.5728824
16	0xbe4b23dd	-0.198379
17	0xbdd3a650	-0.10334456
18	0xbf2be85c	-0.6715143
19	0xbf178df0	-0.59200954
20	0xbeb72106	-0.35767382
21	0xbf116cf9	-0.56806904
22	0x3ecd1114	0.40052092
23	0x3f46403e	0.77441776
24	0xbea0ad51	-0.3138223

fc2.bias f4 [5]
0	0xbedf5860	-0.43622112
1	0xbe3b820b	-0.18311326
2	0xbee26a40	-0.44221687
3	0xbeb73726	-0.35784262
4	0xbd965abf	-0.07341527

fc3.weight f4 [1, 5]
0	0xbeb4a7c2	-0.3528424
1	0xbf175a65	-0.59122306
2	0x3e909488	0.2823832
3	0x3eb0db7d	0.34542456
4	0x3f4fd052	0.81177247
