scheduler_1_wzl/models/face_detection_cpu_server.pth (torch, 3535 bytes, 7 tensors)

fc1.weight f4 [10, 3]
-0.5102747 0.044069756 -0.47416386 -1.0733017 0.05531898 -0.6774465 -4.400195e-05 -0.20955338
-0.0048678005 0.0024157232 -0.33666 -8.992247e-05 -0.09994063 -0.43599278 -0.15696655 -0.41199222
-0.22686571 -0.3042075 -0.3907085 -0.55133855 -0.4296803 -0.13752466 -0.015004933 -0.13304895
-0.6183973 -0.2659028 -0.45750678 0.09595066 -0.5496481 0.02468943
00000000: 5da1 02bf 7d82 343d 9bc5 f2be f361 89bf
00000010: 2896 623d 226d 2dbf bc8e 38b8 2995 56be
00000020: 1282 9fbb 1c51 1e3b b35e acbe c294 bcb8
00000030: acad ccbd 723a dfbe d7bb 20be a5f0 d2be
00000040: 7c4f 68be 16c1 9bbe f20a c8be 8624 0dbf
00000050: 0eff dbbe 44d3 0cbe 40d7 75bc fc3d 08be
00000060: 494f 1ebf 6924 88be 543e eabe c881 c43d
00000070: bdb5 0cbf 7d41 ca3c

fc1.bias f4 [10]
0.31914937 -0.8928916 1.3647518 0.8373223 0.056151785 -0.45500425 0.5341686 -0.14818615
-0.15622854 0.2853348
00000000: 8c67 a33e 8b94 64bf 30b0 ae3f c15a 563f
00000010: 6aff 653d 51f6 e8be 46bf 083f 1cbe 17be
00000020: 60fa 1fbe 6717 923e

fc2.weight f4 [10, 10]
-0.789875 -0.22670747 -0.44866046 0.55443764 0.47550902 0.4783547 0.40291947 -0.23757619
-0.19992292 -0.31498292 0.15558936 -0.20097177 0.032218948 -0.44226703 0.0070010046 0.097049534
0.46129847 0.25738823 -0.34812644 0.013037273 -0.12852922 -0.25783265 -0.8562972 -0.29577097
0.13264148 0.016610384 -0.43151703 -0.12610954 -0.53358865 0.43625766 0.22906852 -0.15801346
-0.23680772 -0.42713755 -0.13691175 0.3556674 -0.3505386 0.09951061 0.38317966 -0.5772791
0.56530434 -0.106297866 0.19193543 -0.336804 -0.07739877 0.0654856 0.2281295 0.4474092
0.3014059 -0.16568947 0.3531554 0.3556816 -0.3953745 0.14634533 -0.3385228 0.34311283
0.039202392 0.2669962 0.10176116 -0.55204266 -0.09393498 0.10219232 -0.08353461 -1.1785439
-0.45096487 -0.30874485 0.47798252 -0.05951658 0.17390096 -0.0048172423 -0.016595423 0.04791689
-0.43254614 0.230627 -0.22381485 0.17385757 0.2701081 -0.2161822 -0.04096824 -0.19405022
-0.0165261 0.09296653 -0.030921852 -0.366028 -0.21908598 0.33848804 -0.34980905 0.07838261
-0.45269582 -0.22789843 -0.630031 0.17693724 0.015008379 -0.020172607 0.057930373 0.20711184
0.028027117 0.5275161 -0.14330107 0.10637498
00000000: 3f35 4abf 0126 68be d3b6 e5be a0ef 0d3f
00000010: eb75 f33e e8ea f43e 764b ce3e 2c47 73be
00000020: 98b8 4cbe 7145 a1be d152 1f3e 8bcb 4dbe
00000030: 04f8 033d d370 e2be af68 e53b e8c1 c63d
00000040: 502f ec3e 64c8 833e a13d b2be 499a 553c
00000050: 2a9d 03be a402 84be 4b36 5bbf 4b6f 97be
00000060: 2bd3 073e 8012 883c cdef dcbe dc22 01be
00000070: 4499 08bf 2a5d df3e f090 6a3e 48ce 21be
00000080: b97d 72be c6b1 dabe 9832 0cbe 0a1a b63e
00000090: cc79 b3be 38cc cb3d 2030 c43e 90c8 13bf
000000a0: c9b7 103f b2b2 d9bd b98a 443e 9371 acbe
000000b0: 3f83 9ebd 501d 863d c89a 693e d212 e53e
000000c0: e051 9a3e 80aa 29be c9d0 b43e e61b b63e
000000d0: 876e cabe 8ddb 153e dc52 adbe 7cac af3e
000000e0: b092 203d bab3 883e 2868 d03d ab52 0dbf
000000f0: fc60 c0bd 354a d13d 3214 abbd 87da 96bf
00000100: dee4 e6be ce13 9ebe 20ba f43e a8c7 73bd
00000110: 1813 323e f5d9 9dbb 20f3 87bc 8044 443d
00000120: b076 ddbe 7c29 6c3e b82f 65be b807 323e
00000130: 9c4b 8a3e de5e 5dbe 50ce 27bd 1ab5 46be
00000140: be61 87bc 3c65 be3d d34f fdbc 0668 bbbe
00000150: 1358 60be 4e4e ad3e 2c1a b3be 1087 a03d
00000160: bfc7 e7be 355e 69be b649 21bf 092f 353e
00000170: b4e5 753c 0641 a5bc 6648 6d3d 2015 543e
00000180: 2099 e53c 4c0b 073f 84bd 12be 20db d93d

fc2.bias f4 [10]
0.011917798 0.15482047 -0.15892486 -0.38405704 -0.1722876 -0.27447596 0.06409802 -0.14680116
-0.074320674 -0.23531589
00000000: de42 433c 4289 1e3e 33bd 22be 20a3 c4be
00000010: 296c 30be 1d88 8cbe d345 833d 0b53 16be
00000020: 7035 98bd a6f6 70be

fc3.weight f4 [10, 10]
0.1655463 -0.5043017 0.027273454 -0.25299072 0.3105205 -0.025552783 0.4244586 -0.48923287
0.3475052 -2.0806239 0.36585182 -0.9174056 0.037799202 -0.040155914 -0.31889153 -0.5305985
-1.6130489 0.14018774 0.096697986 -0.7022728 -0.56435835 -0.031140069 -0.5657652 0.07458838
0.5157455 0.11947878 0.16129577 -0.38091934 0.18454166 0.26086217 0.17194875 -0.709808
-0.30005482 -0.44832587 -0.24373241 -0.6032873 0.19113149 -0.064150125 0.28725418 -0.14732419
0.24735466 -0.05887388 0.0029526146 0.19346294 -0.10243808 -0.35754704 -0.042675626 0.05054128
-0.035939652 0.07266451 -0.33222193 -0.52567387 -0.47281545 0.46476063 0.35911995 -0.4175589
-0.10401426 -0.48599085 0.40387243 -0.41159147 0.23657401 0.072139405 -0.012983758 0.54661536
-0.18406203 0.2293989 -0.4151109 -0.17036796 -0.37596947 0.39405084 -0.5406845 0.05391248
-0.0040018284 0.2773469 0.25491613 -0.08376952 -0.13955562 -0.39981157 -0.040346306 0.22506624
-0.12347197 0.023283243 -0.13223591 0.31548488 -0.27178234 -0.5241358 -0.5468469 -0.498291
-0.022220075 0.012819538 -0.4497995 0.094510525 -0.3494269 0.08414852 -0.4057223 0.13762863
-0.26657104 0.27370745 -0.28339952 -0.113541365
00000000: f884 293e eb19 01bf 946c df3c 0088 81be
00000010: 8bfc 9e3e 1254 d1bc a352 d93e bb7c fabe
00000020: 34ec b13e f128 05c0 ee50 bb3e 18db 6abf
00000030: 56d3 1a3d 877a 24bd c045 a3be 4ed5 07bf
00000040: 6378 cebf 608d 0f3e 9809 c63d 26c8 33bf
00000050: ca79 10bf 7519 ffbc fdd5 10bf cbc1 983d
00000060: e607 043f 4ab1 f43d b82a 253e dc07 c3be
00000070: 7df8 3c3e ba8f 853e 5513 303e fab5 35bf
00000080: c9a0 99be f88a e5be fd94 79be 0971 1abf
00000090: f9b7 433e 2461 83bd fb12 933e 27dc 16be
000000a0: 8a4a 7d3e bd25 71bd a780 413b 261b 463e
000000b0: 0ecb d1bd 6810 b7be a3cc 2ebd 6004 4f3d
000000c0: 7535 13bd 21d1 943d fe18 aabe 9092 06bf
000000d0: de14 f2be 1bf5 ed3e 92de b73e 48ca d5be
000000e0: 6e05 d5bd cbd3 f8be 5ec8 ce3e 1ebc d2be
000000f0: 7540 723e d3bd 933d d4b9 54bc fcee 0b3f
00000100: c27a 3cbe 8ce7 6a3e 6a89 d4be f074 2ebe
00000110: 127f c0be 08c1 c93e 4d6a 0abf 55d3 5c3d
00000120: c521 83bb 6a00 8e3e 5e84 823e 5b8f abbd
00000130: abe7 0ebe 1ab4 ccbe 2b42 25bd c477 663e
00000140: dfde fcbd 80bc be3c da68 07be 3c87 a13e
00000150: 0e27 8bbe c42d 06bf 29fe 0bbf ff1f ffbe
00000160: e006 b6bc 0a09 523c 1f4c e6be bc8e c13d
00000170: 15e8 b2be 0f56 ac3d d5ba cfbe 85ee 0c3e
00000180: 007c 88be 6223 8c3e be19 91be 6088 e8bd

fc3.bias f4 [10]
0.07831414 -0.02595227 -0.28859887 -0.019222366 0.08014805 -0.30866736 -0.01442315 0.3960161
-0.21591844 -0.16376503
00000000: 2a63 a03d db99 d4bc 3bc3 93be 3978 9dbc
00000010: a924 a43d a609 9ebe 134f 6cbc 9fc2 ca3e
00000020: b919 5dbe 05b2 27be

fc4.weight f4 [1, 10]
0.044558357 -0.16048385 -0.3686628 -0.49611467 0.46560466 -0.071370475 -0.24970075 0.2731465
-0.28726295 0.06332709
00000000: d382 363d e155 24be 5fc1 bcbe be02 febe
00000010: bc63 ee3e af2a 92bd 8eb1 7fbe dcd9 8b3e
00000020: 2114 93be a2b1 813d
