scheduler_1_wzl/models/gender_classification_mem_server.pth (torch, 3535 bytes, 7 tensors)

fc1.weight f4 [10, 3]
000000 99 c0 cf 3e 58 c4 a3 3f ac 7b 82 3c 28 55 ef be
       0.40576628 1.2794294 0.015928112 -0.46744657
000010 4a cb 1f 3e 52 80 6d bd a8 8d 4e 3f 9d ac 56 3f
       0.15604892 -0.057983704 0.806849 0.83857137
000020 60 83 6f 3f 82 4e 0c bf 18 d0 d7 bd 80 dd df bb
       0.9355984 -0.54807293 -0.105377376 -0.006831825
000030 86 90 03 bf 30 c4 00 3e c9 8c e4 bc c4 2a 1b bf
       -0.513924 0.1257484 -0.027899163 -0.6061213
000040 1d df 85 be ae 04 40 3e 0a bd 93 3e 40 67 76 3e
       -0.26146784 0.18751785 0.28855163 0.24062824
000050 07 73 cc be 3a bf a4 be f3 0d dc be fc 8e cf 3d
       -0.3993151 -0.32177144 -0.42979392 0.10134694
000060 cd df 06 bf d7 fe 8c be 07 de 81 3e 38 60 fd 3e
       -0.5268524 -0.27538177 0.25364706 0.49487472
000070 b0 5c 89 3f 30 0e 46 be
       1.0731411 -0.1934135

fc1.bias f4 [10]
000000 a6 05 29 42 5b a2 28 42 ac 48 25 42 f5 05 b6 be
       42.255516 42.15855 41.32097 -0.3555142
000010 83 7b 2b 42 0a a8 b8 be 8d 05 2b 42 c5 05 28 42
       42.870617 -0.36065704 42.75542 42.005634
000020 49 57 28 42 cc d2 25 42
       42.08524 41.455856

fc2.weight f4 [10, 10]
000000 3f b2 72 41 33 ef 80 41 61 70 61 41 74 f8 27 3e
       15.168517 16.116796 14.089936 0.16403371
000010 1d f7 81 41 30 a6 cb bd 6c ff 78 41 cb 31 7b 41
       16.24566 -0.09943807 15.562359 15.6996565
000020 c8 18 80 41 44 0f 6e 41 c4 e6 6f 41 61 24 80 41
       16.0121 14.878727 14.993839 16.017763
000030 56 43 61 41 51 3d 04 bf 39 29 81 41 a1 ab b1 be
       14.078939 -0.5165606 16.145128 -0.34701255
000040 e3 49 7d 41 db 14 7d 41 00 78 83 41 f9 4a 61 41
       15.830539 15.817592 16.433594 14.080804
000050 d1 8f be 3e 9e 67 a4 3e 0e cf 0f bf 0c 25 bf 3e
       0.37219098 0.32110304 -0.56175315 0.37332952
000060 32 f9 03 bf a1 5d a2 bd b1 31 d4 3c d6 d4 e3 3e
       -0.51552117 -0.079280145 0.025902601 0.44498318
000070 00 91 3a bd 16 35 04 bf 65 71 69 41 84 a5 82 41
       -0.04554844 -0.516435 14.590184 16.330818
000080 1a d4 61 41 d0 7c 6d be 26 cc 83 41 e2 5c 08 bf
       14.114283 -0.23192143 16.474682 -0.5326673
000090 ce 72 79 41 fd 8b 83 41 23 21 84 41 dd e4 62 41
       15.5905285 16.443354 16.51618 14.180875
0000a0 25 f0 6f 41 a4 f7 7d 41 cd 01 5a 41 ea b8 36 be
       14.996129 15.872959 13.62544 -0.17843977
0000b0 c0 be 83 41 08 43 1a 3e da 2e 76 41 ac 9a 7d 41
       16.46814 0.15064633 15.386438 15.850262
0000c0 8e 9b 7c 41 f3 04 63 41 08 10 4f 3e 8e d9 4f bf
       15.787977 14.188708 0.20220959 -0.8119134
0000d0 00 71 f1 bd c8 fc d3 be 44 bb 2a bf df 8c a8 be
       -0.11789131 -0.41403794 -0.66691995 -0.32919976
0000e0 79 6c 33 bf 35 f7 e4 3d 06 39 04 bf 9f 71 50 3d
       -0.7008739 0.111799635 -0.5164951 0.050889608
0000f0 56 a5 61 41 fb 3b 82 41 cf 05 59 41 f8 fb 1d 3e
       14.102865 16.279287 13.563918 0.1542815
000100 50 ef 81 41 88 ab 07 bf af 31 78 41 c0 75 7d 41
       16.241852 -0.5299611 15.51213 15.841248
000110 58 0f 81 41 77 35 68 41 1f 92 61 41 4c 6d 80 41
       16.132492 14.513053 14.098174 16.053368
000120 f0 7e 62 41 8c c2 b6 be 19 06 83 41 b9 9a 29 bd
       14.155991 -0.35695302 16.377977 -0.04140732
000130 85 7f 74 41 54 96 7b 41 a3 8d 83 41 9c 6a 64 41
       15.281133 15.724201 16.444159 14.276028
000140 32 61 62 41 20 eb 7c 41 b5 3f 68 41 a4 a5 5a 3e
       14.148729 15.807404 14.515553 0.2135225
000150 ec 1e 7f 41 74 e5 bd 3e 66 c8 76 41 2c 6d 81 41
       15.945049 0.3708912 15.423925 16.178307
000160 71 0d 79 41 bf be 6d 41 eb fc 70 41 53 99 81 41
       15.565782 14.859069 15.061748 16.199865
000170 35 f8 68 41 1a 6d 01 3f 84 31 81 41 00 88 c9 3d
       14.560597 0.505571 16.149178 0.09840393
000180 6a 45 6d 41 c4 86 81 41 e4 9d 83 41 18 cf 6f 41
       14.829447 16.190804 16.452095 14.98806

fc2.bias f4 [10]
000000 80 34 0f 42 0c c3 0e 42 2b c6 ed be 43 ef 0f 42
       35.80127 35.690475 -0.46440253 35.983654
000010 c1 15 0f 42 05 02 19 be 74 6c 0f 42 54 9f 0f 42
       35.771244 -0.14942177 35.85591 35.905594
000020 91 46 0f 42 8d 95 0d 42
       35.818913 35.396046

fc3.weight f4 [10, 10]
000000 27 f9 75 41 47 63 7f 41 b3 fe 9b be 3e c9 73 41
       15.373328 15.961738 -0.30467758 15.236631
000010 29 d9 7d 41 db 52 3d be fd e2 7f 41 90 69 78 41
       15.865518 -0.18488638 15.992917 15.525772
000020 59 b4 76 41 63 e2 73 41 ba b9 7a 41 2f 4c 75 41
       15.41903 15.24277 15.670343 15.3310995
000030 b8 8c f1 3b 3d 1a 76 41 09 dc 78 41 1d ed 4b 3d
       0.0073715113 15.381406 15.5537195 0.049786676
000040 51 66 71 41 26 c9 71 41 b5 08 76 41 5b 2b 77 41
       15.08748 15.1116085 15.377126 15.448085
000050 6b 84 f8 be c0 54 c1 bd ec 30 e5 be 82 ab 09 bf
       -0.48538527 -0.09439993 -0.44763887 -0.53777325
000060 f6 8a 20 be 1a 0b f0 3e 7e 55 8d 3e 2a 92 e2 3b
       -0.1567801 0.4688347 0.27604288 0.006914397
000070 f7 fa 6f be a7 c8 ad be 68 8b 8f 3e 17 9b 40 be
       -0.23435579 -0.33942148 0.28036046 -0.18809162
000080 53 79 75 be 76 39 0d 3d 1a 0e 2a 3e 72 e8 4d 3e
       -0.23972063 0.034478627 0.16606942 0.20108202
000090 1a c8 f4 be df 55 ef 3d 43 31 08 bf f6 06 1c bf
       -0.47808915 0.116863005 -0.5320017 -0.6094812
0000a0 e1 b8 6f 41 81 6c 7f 41 62 73 c1 be 67 f8 78 41
       14.982636 15.96399 -0.37783343 15.560645
0000b0 8a 9e 77 41 42 ff e2 3e 52 a1 71 41 0b 6c 80 41
       15.476206 0.4433537 15.101885 16.052755
0000c0 82 fb 77 41 5d 57 7d 41 55 87 fd bb c6 1b 84 be
       15.498903 15.833829 -0.00773708 -0.2580244
0000d0 62 70 1f 3d 79 78 b3 be a6 80 cf be 85 11 da be
       0.038925536 -0.3505285 -0.40527838 -0.4259149
0000e0 26 a3 d0 be 59 a0 c1 be 8a 21 5c 3e 7b 1f 12 3c
       -0.40749472 -0.37817648 0.21497169 0.008918638
0000f0 eb f9 7b 41 3b 61 7a 41 c2 89 19 be b3 ea 75 41
       15.748515 15.648738 -0.14993957 15.3698
000100 76 47 7b 41 3b 41 13 be a7 91 7c 41 8d 77 70 41
       15.7049465 -0.14380352 15.78556 15.029187
000110 c9 c0 70 41 5f 47 76 41 21 64 79 41 da 61 7a 41
       15.047067 15.392425 15.586946 15.64889
000120 c5 58 ad bd 84 e8 70 41 d2 d7 7f 41 1d 67 2b 3e
       -0.08464197 15.0567665 15.9901905 0.16738553
000130 78 86 71 41 48 c3 77 41 82 5f 79 41 01 1f 77 41
       15.095329 15.485176 15.585817 15.445069
000140 26 70 80 3e 38 81 eb be 12 cc d4 3e be d1 04 bf
       0.25085562 -0.45997024 0.41561943 -0.5188254
000150 40 dd 30 3c 1e a4 b5 be 56 28 05 be 1c 84 06 be
       0.010794938 -0.35476774 -0.13003668 -0.13136333
000160 24 0c d6 3e d0 f0 68 bd 86 1b 78 41 43 ae 71 41
       0.41806138 -0.05687028 15.50672 15.105044
000170 51 ef 45 3e 6d b0 73 41 b8 29 74 41 9b 75 13 bd
       0.19329573 15.230573 15.260185 -0.03600083
000180 81 dd 79 41 f0 44 7d 41 e5 eb 7d 41 7e b8 7a 41
       15.616578 15.82933 15.870091 15.670042

fc3.bias f4 [10]
000000 6f 93 e0 41 1e 6f d6 41 cf ed 45 3e 7c e3 2e 3e
       28.07199 26.804256 0.19328998 0.17078966
000010 8f 6c df 41 36 b2 da be 02 66 d8 41 46 07 de 41
       27.928007 -0.4271409 27.049809 27.753551
000020 1a fd 76 be 08 6e d8 41
       -0.24119988 27.053726

fc4.weight f4 [1, 10]
000000 d8 83 7b 41 38 81 81 41 f4 59 25 bf ee 38 84 be
       15.719688 16.188095 -0.6459038 -0.25824684
000010 c5 12 7d 41 d4 58 a3 3d a5 d6 7f 41 c9 60 7c 41
       15.817082 0.07975927 15.989903 15.773629
000020 28 d7 cf 3d 5a 6c 7f 41
       0.1014846 15.963953
