scheduler_1_wzl/models/gender_classification_proc_delay_edge.pth (torch, 2263 bytes, 5 tensors)

fc1.weight f4 [5, 2]
00000000: 2cee 5b3e 1097 c33e 583c 8abe e078 d8bd
00000010: 94cc 09be e93b 3cbf 4528 b83e bffe 56bf
00000020: 038a 44bf cf02 56bf
0.21477574 0.3820119 -0.26999164 -0.1056993 -0.13456947 -0.73528916 0.35968223 -0.8398246
-0.7677309 -0.83598036

fc1.bias f4 [5]
00000000: 3679 57be 3780 103e 0aea 8dbe 1663 a0bf
00000010: 7e01 ba3e
-0.21042332 0.1411141 -0.2771762 -1.2530239 0.36329263

fc2.weight f4 [5, 5]
00000000: 9ef3 f33e 6c1b 963e 726e c5be 990b 2ebe
00000010: 8d7d bfbe f1d3 20bf 5ad0 c0be a25a 0c3f
00000020: 4737 d8be 709c 0ebf b0d1 fabe a0fe 883c
00000030: 5075 8d3e 7d5e 0dbf 0cf1 febe 678a 223e
00000040: 9a20 f7be b4f2 17bf d8cc bcbd f846 483e
00000050: 3c13 8cbe 00b1 32be 38db 0ebf 1b35 2fc0
00000060: c459 30bf
0.47646803 0.29317796 -0.38560826 -0.16996612 -0.37400475 -0.62823397 -0.3765896 0.54825795
-0.42229673 -0.55707455 -0.48988104 0.016722977 0.27628565 -0.552223 -0.4979328 0.15873109
-0.4826706 -0.5935471 -0.09218758 0.19558322 -0.27358425 -0.17450333 -0.5580325 -2.7376163
-0.6888697

fc2.bias f4 [5]
00000000: a140 99bf 63df 92be 6f80 3dbe ebf1 8c3f
00000010: 75e6 793e
-1.1972848 -0.28686056 -0.18506025 1.1011328 0.24404319

fc3.weight f4 [1, 5]
00000000: 0af1 ca3d 8754 6cbe 37fa 293f 512c b53e
00000010: 2961 f63d
0.09909256 -0.2307912 0.6639742 0.35385373 0.120302506
