scheduler_1_wzl/models/gender_classification_proc_delay_cloud.pth (torch, 2263 bytes, 5 tensors)

fc1.weight f4 [5, 2]
00000000: 6d73 95bf 1203 1c3e d7a4 b5be 1918 acbc
00000010: 084a 09bf cf80 e2be 4f12 fabe d9fb 21bf
00000020: 0803 61bf 1211 31bf
-1.167585 0.15235546 -0.35477325 -0.021007584 -0.5362859 -0.44238898 -0.48842093 -0.63274914
-0.8789525 -0.6916667

fc1.bias f4 [5]
00000000: d2ce ce3c 0a6a 23be 2a05 2dbf 6608 7a3f
00000010: 1af2 de3e
0.025245104 -0.1595842 -0.67586005 0.97669065 0.43544084

fc2.weight f4 [5, 5]
00000000: 0261 303f 93fa 2ebf 008c 9a3b 60b7 86bd
00000010: d80c b3bd a519 87be 72e9 11be b082 9a3e
00000020: 622e f4bc 9456 c93e 27c0 c33c 49ae 37be
00000030: d8ab f03d 938b 7b3d 9ea8 3e3f 3e59 103e
00000040: 312c d13d 1ceb 2bbf 4b84 de3e 2756 12bf
00000050: abb1 2abf b039 40bf 5ef6 c6be 046e 33bf
00000060: 8634 413f
0.6889802 -0.68351096 0.0047163963 -0.06577945 -0.08742684 -0.26386753 -0.14249209 0.30177832
-0.029807273 0.39323866 0.023895336 -0.17937578 0.117515266 0.061412405 0.7447604 0.14096543
0.10213507 -0.67155623 0.43460307 -0.5716271 -0.6667735 -0.75088024 -0.38859838 -0.70089746
0.7547077

fc2.bias f4 [5]
00000000: fd43 54be 8adc aa3d b406 583e 062d e6bd
00000010: 34b2 e3bd
-0.2072906 0.08342846 0.21096307 -0.11239056 -0.11117974

fc3.weight f4 [1, 5]
00000000: 8245 193f da61 abbe 1378 893e 2314 3cbe
00000010: e06e f53d
0.59871686 -0.33473092 0.26849422 -0.18367057 0.11984038
