prediction_model/models/gender_classification_mem_edge.pth (torch, 3535 bytes, 7 tensors)

fc1.weight f4 [10, 3]
0	0x3f95e464	1.1710324
1	0x3f3e0229	0.74222046
2	0x3fa4314c	1.2827544
3	0x3f6184e5	0.88093406
4	0x3f2b9237	0.6701998
5	0x3e537901	0.20651628
6	0xbf19ae21	-0.60031325
7	0xbef6f6f8	-0.48235297
8	0xbe9e59cb	-0.30927882
9	0xbf22b349	-0.6355482
10	0xbe0db398	-0.13838041
11	0xbec41a5a	-0.38301355
12	0x3f75dce9	0.9604021
13	0x3fbf1ac8	1.4930048
14	0x3f330cbf	0.69941324
15	0xbd3dc724	-0.046332493
16	0xbf2d8aa6	-0.67789686
17	0xbf10d848	-0.5658002
18	0xbe19d188	-0.15021336
19	0xbe9d408c	-0.30713308
20	0xbeef919b	-0.46790776
21	0xbf5a32d1	-0.8523379
22	0xbfefa4f1	-1.8722211
23	0xbf5fcecf	-0.8742494
24	0xbfa06fb1	-1.2534086
25	0xbeb26681	-0.3484383
26	0xbf67fe82	-0.90622723
27	0xbf0a8044	-0.5410197
28	0x3f49cbf3	0.78826827
29	0x3e6e7e04	0.23290259

fc1.bias f4 [10]
0	0x4238bbe0	46.18347
1	0x4239ceee	46.45208
2	0xbebc9b88	-0.3683741
3	0xbea96c1f	-0.33090302
4	0x4238eeba	46.23313
5	0x3e5eb9ca	0.2175056
6	0xbe532d94	-0.20622855
7	0x4239e9f9	46.47849
8	0x4238f005	46.234394
9	0x423ccb9d	47.19884

fc2.weight f4 [10, 10]
0	0x3c894eef	0.016761271
1	0xbf3ecf38	-0.7453494
2	0x3d24e1d0	0.040254414
3	0xbd9f0874	-0.07765284
4	0x3e057f68	0.13036883
5	0xbea7ec03	-0.3279725
6	0xbdf91708	-0.12162596
7	0x3de52d9b	0.11190339
8	0x3df18fe1	0.11795021
9	0xbe8154c1	-0.25259975
10	0x418456c7	16.542372
11	0x41822b45	16.271128
12	0xbef2d758	-0.4742992
13	0x3e921e8a	0.28538924
14	0x418070bd	16.055048
15	0xbee697ba	-0.45037633
16	0xbec4a4ca	-0.38406974
17	0x419b4f11	19.413607
18	0x4199ad7e	19.209713
19	0x41949d73	18.57688
20	0x4184a801	16.582033
21	0x4186dc7e	16.857662
22	0x3f04d818	0.5189223
23	0xbe1b13e4	-0.15144306
24	0x41880ad6	17.005291
25	0xbdf1681c	-0.117874354
26	0xbf07e868	-0.53089
27	0x4196609c	18.797173
28	0x4195efc0	18.742065
29	0x4191baf7	18.216291
30	0x4186f3c3	16.869024
31	0x418711ef	16.883757
32	0xbf0389c8	-0.5138211
33	0x3ee33e12	0.44383293
34	0x4180f170	16.11789
35	0xbedabdd7	-0.4272296
36	0x3e97b87e	0.29632944
37	0x419c677e	19.550533
38	0x41964fb9	18.788927
39	0x41900495	18.002237
40	0x417cfab9	15.811212
41	0x4188dcc4	17.107796
42	0xbeed030c	-0.46291387
43	0x3ef2a72c	0.47393167
44	0x41855b4e	16.669582
45	0xbea977e1	-0.33099273
46	0xbeaf90d2	-0.34290177
47	0x419a10bf	19.258177
48	0x419b983f	19.449339
49	0x4194d640	18.604614
50	0x4187d174	16.977272
51	0x418aa500	17.330566
52	0xbe7d3cfa	-0.24730292
53	0x3e4c5c44	0.19957072
54	0x4182da84	16.356697
55	0x3ec816a9	0.39079788
56	0x3eca995e	0.39570135
57	0x4196a000	18.828125
58	0x4196961d	18.823298
59	0x4196e0e3	18.859808
60	0x4185af71	16.710665
61	0x418650ce	16.789455
62	0x3ee24998	0.44196773
63	0x3e5fe570	0.21864867
64	0x41853cde	16.65472
65	0xbdd458ef	-0.10368525
66	0x3db41c98	0.08794516
67	0x41967163	18.805365
68	0x4195f60f	18.745146
69	0x41951191	18.633577
70	0x418463e7	16.54878
71	0x4189e4b8	17.23668
72	0xbd22c760	-0.03974092
73	0x3e14bc64	0.1452499
74	0x4180a5ca	16.080952
75	0x3e826aa6	0.2547199
76	0x3d6377d0	0.055534184
77	0x41a08ae8	20.067825
78	0x4198405e	19.03143
79	0x4195069c	18.628227
80	0x418591ee	16.696255
81	0x4186551b	16.791555
82	0x3f0075cc	0.50179744
83	0xbeff5cdb	-0.4987553
84	0x4185d226	16.727612
85	0x3ead48fd	0.33844748
86	0x3ec921d6	0.39283627
87	0x4197905b	18.945486
88	0x419c0b7b	19.505606
89	0x41963244	18.774544
90	0x41857d38	16.686142
91	0x418b4f89	17.413836
92	0x3beea180	0.007282436
93	0x3ef1e028	0.4724133
94	0x4186e015	16.859415
95	0x3e66819b	0.22510378
96	0xbdb4b10c	-0.088228315
97	0x419c5a19	19.543993
98	0x41969af1	18.825655
99	0x41916368	18.173538

fc2.bias f4 [10]
0	0xbef33bde	-0.47506613
1	0x421ff4bd	39.989002
2	0x421de00c	39.468796
3	0x421f3116	39.797935
4	0x421f0b42	39.760994
5	0x4220aaad	40.166676
6	0x421f9f8d	39.90581
7	0x4221411f	40.313595
8	0x421e8ab1	39.63544
9	0x421fc0e8	39.938385

fc3.weight f4 [10, 10]
0	0xbd108d7a	-0.035291173
1	0x3d8ddb88	0.06926638
2	0xbeafefce	-0.34362644
3	0x3e979d80	0.2961235
4	0xbea4dba9	-0.32198837
5	0xbd06c17b	-0.03289936
6	0xbee3b890	-0.44476748
7	0xbe9453bb	-0.2897013
8	0x3eb052e4	0.3443824
9	0x3cf628b0	0.030048698
10	0xbef058bc	-0.469427
11	0x3ea6e4f8	0.32596564
12	0x3eb932d2	0.36171585
13	0xbea0ca66	-0.31404418
14	0xbdec8200	-0.11548233
15	0xbed8b1ad	-0.42323056
16	0xbe9873be	-0.29775804
17	0x3e8ec9f0	0.2788844
18	0xbdfecc24	-0.124412805
19	0xbf038706	-0.51377904
20	0xbdcb49a6	-0.09926157
21	0x41943449	18.52553
22	0x41955570	18.666718
23	0x4192265c	18.26873
24	0x41945e7e	18.546139
25	0x418eeaff	17.864744
26	0x419365f4	18.424782
27	0x4193d8eb	18.480917
28	0x4195c645	18.721811
29	0x419061d2	18.047764
30	0x3e22acd2	0.15886238
31	0x3de3bf68	0.11120492
32	0x3da6c99f	0.08143925
33	0x3ed8e9e0	0.42365932
34	0x3dcaa775	0.09895221
35	0xbf1f5667	-0.62241215
36	0xbf24bf97	-0.6435484
37	0xbec9313d	-0.39295378
38	0xbe68abdb	-0.22721808
39	0xbf0edbee	-0.55804336
40	0xbe9f76cc	-0.31145322
41	0x3e6db861	0.23214866
42	0xbe27733e	-0.16352555
43	0xbef97d76	-0.48728532
44	0x3cedb2db	0.029015949
45	0xbdfe1e99	-0.1240818
46	0x3e0b7f1b	0.13622706
47	0x3eece740	0.4627018
48	0x3d361159	0.044450138
49	0xbe1c538b	-0.15266244
50	0xbe831d7b	-0.2560843
51	0x4195583b	18.668081
52	0x4191cd31	18.225191
53	0x4196ed96	18.866009
54	0x419241b7	18.282087
55	0x41905aa6	18.044262
56	0x4197306b	18.898642
57	0x41910efe	18.13232
58	0x41937c53	18.435705
59	0x4195f114	18.742714
60	0xbe42fa35	-0.19040759
61	0xbeaf6974	-0.34260142
62	0xbe13f003	-0.14447026
63	0x3b8a7d80	0.0042263865
64	0x3dec7ec7	0.11547618
65	0xbeda258b	-0.42606768
66	0x3e564116	0.20923266
67	0x3ecdf8d6	0.4022891
68	0xbe7108ca	-0.23538509
69	0x3d5c59eb	0.05379669
70	0xbdc709a2	-0.09718634
71	0x4190aff8	18.085922
72	0x4193b07d	18.461176
73	0x4193b9aa	18.465656
74	0x418f221b	17.891653
75	0x41918a27	18.192457
76	0x4191adfd	18.209955
77	0x4191ca12	18.223667
78	0x4192271d	18.269098
79	0x4191a6c0	18.20642
80	0xbf042e8b	-0.5163352
81	0xbdca52e8	-0.09879094
82	0xbed92bcf	-0.42416236
83	0xbe0d336e	-0.1378915
84	0xbcb3e5c0	-0.02196014
85	0xbe9f4032	-0.31103665
86	0x3c704e00	0.014667034
87	0xbe2cdb16	-0.1688045
88	0x3e9a8df2	0.3018642
89	0x3eb96a78	0.36214042
90	0xbe7b53b2	-0.24543646
91	0x4192c569	18.346392
92	0x4193a350	18.454742
93	0x41944620	18.53424
94	0x41900719	18.003466
95	0x419507f5	18.628885
96	0x4193be5b	18.467947
97	0x418dfa1c	17.747124
98	0x418e0a9d	17.755182
99	0x41900b85	18.005625

fc3.bias f4 [10]
0	0xbe882d33	-0.26596984
1	0x3e8c75ff	0.27433774
2	0x41fa4f6c	31.28878
3	0xbe101dc9	-0.14073862
4	0xbef05708	-0.469414
5	0x41fed7af	31.855314
6	0xbd7d42b3	-0.061831187
7	0x41f56b17	30.67729
8	0xbe57eb24	-0.21085793
9	0x41f6a5a0	30.830872

fc4.weight f4 [1, 10]
0	0xbd941120	-0.07229829
1	0x3e68d688	0.22738087
2	0x4196c426	18.845776
3	0xbde9d3a8	-0.11417323
4	0xbec113ef	-0.3771052
5	0x419597c8	18.699112
6	0xbdcbec7e	-0.09957217
7	0x4199a684	19.206306
8	0x3f2048f1	0.626113
9	0x419966c5	19.17518
