prediction_model/models/trans_delay.pth (torch, 2263 bytes, 5 tensors)

fc1.weight f4 [5, 2]
00000000: c89e 6c3e ac71 02bf a0e8 f53d ce9b cfbe
00000010: fe82 333f 0539 66bf 6c6b 4b3f e83c cebe
00000020: 6692 04bf e711 b13b
0.23107445 -0.509547 0.1200726 -0.40548557 0.70121753 -0.89930755 0.7946079 -0.40280843
-0.51785886 0.0054037455

fc1.bias f4 [5]
00000000: 153b 0ebf e083 ecbe 4877 da3d 6065 a83d
00000010: 1331 59bf
-0.555589 -0.46194363 0.10667282 0.08222461 -0.84840506

fc2.weight f4 [5, 5]
00000000: b012 653e 5873 c1be 9898 1d3f 84d8 40bf
00000010: 1017 233e 10ae 023d 9875 f23e e89c 893d
00000020: f4c3 22be 82f2 eb3e b8c8 093e 0421 36bf
00000030: 0bdf 44bf e239 edbe 95b6 013f fcc5 25bf
00000040: ff06 a1be 6817 0f3f 666e f9be 8453 543f
00000050: 6899 aabd 0000 c43c c206 94be a065 3bbf
00000060: dc71 bd3c
0.2237041 -0.37783313 0.61560965 -0.75330377 0.15926766 0.03190428 0.47355342 0.067193806
-0.15895063 0.46083456 0.13455474 -0.7114413 -0.76902837 -0.46333224 0.50669223 -0.64755225
-0.3145065 0.5589509 -0.4871704 0.82939935 -0.08330041 0.023925781 -0.28911406 -0.7320194
0.023125581

fc2.bias f4 [5]
00000000: a3b0 833d 49b8 89be 9a92 58bf ec3d 883e
00000010: 43f4 943f
0.06430175 -0.2689841 -0.84598696 0.26609743 1.1637043

fc3.weight f4 [1, 5]
00000000: 963e 2bbf d4ee c3be 6b4f e43d c571 8c3e
00000010: 435a 42bd
-0.66892374 -0.3826815 0.1114796 0.2743055 -0.04744936
