models/face_detection_mem_edge.pth (torch, 3535 bytes, 7 tensors)

fc1.weight f4 [10, 3]
0.16872962 16.721428 -0.51481986 0.20707399 16.6017 -0.94980305 -0.24489217 16.77596
-0.5065333 -1.7491609 15.612866 -1.0566316 -0.34617487 -0.45382714 -0.30573687 0.7436218
16.187878 0.62744856 0.7128667 15.913731 -0.4117106 -0.5073272 -0.110159636 -0.06421864
0.39180014 16.342655 -0.24314447 -0.40652922 -0.06108415 -0.52441144
00000000: 75c7 2c3e 7cc5 8541 3ccb 03bf 340b 543e
00000010: 48d0 8441 4b26 73bf 03c5 7abe 2b35 8641
00000020: 2bac 01bf 81e4 dfbf 4dce 7941 b43f 87bf
00000030: d53d b1be 085c e8be 8b89 9cbe 005e 3e3f
00000040: c680 8141 78a0 203f 6f7e 363f a49e 7e41
00000050: bbcb d2be 32e0 01bf 609b e1bd 1085 83bd
00000060: 079a c83e c2bd 8241 ddfa 78be 9924 d0be
00000070: 6033 7abd d43f 06bf

fc1.bias f4 [10]
44.016834 42.9277 44.809944 44.565575 0.099936426 42.88492 42.872803 0.48104036
43.99223 0.13566303
00000000: 3d11 3042 f7b5 2b42 623d 3342 2643 3242
00000010: 78ab cc3d 288a 2b42 c07d 2b42 ec4a f63e
00000020: 0bf8 2f42 40eb 0a3e

fc2.weight f4 [10, 10]
-0.069010526 -0.31654817 -0.32996482 -0.10871276 0.04587251 -0.46254325 -0.5418379 -0.019687176
0.042449355 -0.009116113 -0.719924 -0.13689996 0.13899301 0.105987914 0.19502252 -0.20311359
0.1402508 0.18085968 0.25824 -0.17732824 14.181975 14.643055 14.559728 16.188467
0.25781488 14.074468 13.816434 -0.41942817 13.982318 -0.3828314 -0.5287373 -0.536557
-0.15734339 -0.4563208 -0.08668694 -0.21213067 -0.45087066 0.2729454 0.20020145 0.32357472
14.875022 14.454791 14.603852 15.771066 0.09394109 14.17477 14.033096 0.23175013
14.511264 -0.1507743 15.0868435 14.280022 15.349808 15.623824 0.1967187 14.385906
14.241783 0.49306786 14.352676 -0.09438233 -0.16470696 0.4159255 -0.12236605 0.5971766
-0.028612375 -0.14424287 -0.45705295 0.14189404 -0.3367207 -0.16269456 -0.53281486 -0.20971626
-0.24633297 0.066102505 0.19437772 -0.45456144 -0.079265594 0.030461967 0.035440564 -0.2331801
14.614797 14.3502245 14.828094 16.115986 -0.115849435 14.013368 13.839855 0.31269014
14.48891 -0.5102406 14.732878 14.404893 14.786547 16.167206 -0.009744048 13.992449
13.965341 -0.43888837 14.556132 -0.24352844
00000000: 6455 8dbd 9a12 a2be 26f1 a8be cca4 debd
00000010: d0e4 3b3d 78d2 ecbe e3b5 0abf 0047 a1bc
00000020: 60df 2d3d c05b 15bc f04c 38bf 812f 0cbe
00000030: 2f54 0e3e 3110 d93d fcb3 473e 02fd 4fbe
00000040: e89d 0f3e 4833 393e 0938 843e 8995 35be
00000050: 5fe9 6241 f449 6a41 a5f4 6841 fb81 8141
00000060: 5000 843e 0531 6141 1d10 5d41 4abf d6be
00000070: 93b7 5f41 7a02 c4be 545b 07bf cd5b 09bf
00000080: a01e 21be e1a2 e9be ec88 b1bd c838 59be
00000090: 85d8 e6be 80bf 8b3e 9c01 4d3e 96ab a53e
000000a0: 1700 6e41 d346 6741 61a9 6941 4956 7c41
000000b0: 3064 c03d dccb 6241 9087 6041 e84f 6d3e
000000c0: 232e 6841 9464 1abe b663 7141 f87a 6441
000000d0: d098 7541 2ffb 7941 a070 493e ac2c 6641
000000e0: 58de 6341 6473 fc3e 90a4 6541 864b c1bd
000000f0: f1a8 28be 30f4 d43e 0d9b fabd 91e0 183f
00000100: 8064 eabc 67b4 13be d802 eabe ac4c 113e
00000110: a866 acbe 6799 26be 8e66 08bf dcbf 56be
00000120: b63e 7cbe c060 873d f40a 473e 47bc e8be
00000130: 0056 a2bd 608b f93c 202a 113d c4c6 6ebe
00000140: 35d6 6941 859a 6541 df3f 6d41 8aed 8041
00000150: 7842 edbd c136 6041 0c70 5d41 ec18 a03e
00000160: 93d2 6741 219f 02bf deb9 6b41 717a 6641
00000170: b295 6c41 7056 8141 80a5 1fbc 12e1 5f41
00000180: 0972 5f41 fab5 e0be ebe5 6841 855f 79be

fc2.bias f4 [10]
-0.1449218 0.0965668 35.48006 -0.24083915 35.08175 34.944386 -0.10304773 -0.0321666
35.156975 35.514717
00000000: 6166 14be d0c4 c53d 95eb 0d42 8a9e 76be
00000010: b653 0c42 0dc7 0b42 b00a d3bd 20c1 03bd
00000020: bea0 0c42 120f 0e42

fc3.weight f4 [10, 10]
-0.17898229 -0.019084584 15.242478 -0.45631558 14.96983 15.104895 0.027718594 0.3548233
14.845434 14.862691 -0.23182154 -0.46621916 0.42914033 -0.5143044 0.07818135 -0.39358944
0.47124532 -0.16018894 0.27566835 -0.5887703 -0.20656598 0.03735915 14.996541 -0.06321433
14.65564 14.45979 0.011726536 0.23009968 14.846961 15.188407 0.35956818 -0.051716372
0.31051236 0.4941826 0.008159709 -0.3164429 0.12755883 -0.40433878 -0.6379911 0.3571634
0.08095795 -0.2342964 14.859702 -0.44093207 14.847652 15.168723 -0.08959993 -0.23341626
14.694067 14.484947 -0.3301773 -0.41579837 -0.5343757 -0.24136558 -0.51477444 -0.42323148
-0.45824546 0.27789617 -0.28579187 0.10347581 -0.06499836 0.5035401 14.535743 -0.10162696
15.272261 14.929942 -0.013754697 0.21823335 14.420111 14.877277 0.07538921 -0.54406095
-0.14253983 0.013130784 -0.527011 -0.33844525 0.5278617 0.4816823 -0.23090276 0.24235195
-0.057044953 0.08473 -0.3639031 -0.18577039 0.13978814 -0.47768515 -0.6514033 0.23311031
-0.13265067 -0.012511137 0.41407496 -0.2533017 14.290162 -0.46511218 14.212353 14.545848
0.22326225 0.4370231 14.8799925 14.867158
00000000: 2247 37be 4657 9cbc 31e1 7341 32a2 e9be
00000010: 6c84 6f41 a6ad 7141 1b12 e33c 66ab b53e
00000020: e686 6d41 95cd 6d41 a062 6dbe 47b4 eebe
00000030: 48b8 db3e 74a9 03bf 8b1d a03d 8e84 c9be
00000040: 1147 f13e 9208 24be 6724 8d3e a6b9 16bf
00000050: 0886 53be e805 193d d5f1 6f41 8476 81bd
00000060: 807d 6a41 4d5b 6741 a820 403c 409f 6b3e
00000070: 278d 6d41 b703 7341 5219 b83e 8cd4 53bd
00000080: 7afb 9e3e 8005 fd3e 4db0 053c ce04 a2be
00000090: c89e 023e 7e05 cfbe 6253 23bf 1fde b63e
000000a0: 48cd a53d 65eb 6fbe 57c1 6d41 d9c1 e1be
000000b0: fc8f 6d41 17b3 7241 2b80 b7bd ac04 6fbe
000000c0: e61a 6b41 58c2 6741 000d a9be 86e3 d4be
000000d0: d9cc 08bf 8a28 77be 42c8 03bf ccb1 d8be
000000e0: 269f eabe 6848 8e3e 5053 92be 20eb d33d
000000f0: dc1d 85bd 01e8 003f 6792 6841 cc21 d0bd
00000100: 2e5b 7441 0be1 6e41 615b 61bc 9078 5f3e
00000110: c6b8 6641 5409 6e41 a865 9a3d 9447 0bbf
00000120: f6f5 11be 8022 573c 31ea 06bf b248 adbe
00000130: f221 073f 109f f63e c671 6cbe 1c2b 783e
00000140: f8a7 69bd ec86 ad3d 8251 babe 983a 3ebe
00000150: 9f24 0f3e 2693 f4be 5ec2 26bf 78b4 6e3e
00000160: 94d5 07be 83fb 4cbc a201 d43e c3b0 81be
00000170: 81a4 6441 2f23 eebe cc65 6341 cbbb 6841
00000180: dc9e 643e 7ec1 df3e 7314 6e41 e1df 6d41

fc3.bias f4 [10]
24.45005 -0.25881794 25.3076 -0.06767483 24.367771 0.05011201 25.11256 0.17419814
0.17463285 24.91326
00000000: b499 c341 c983 84be f775 ca41 1a99 8abd
00000010: 32f1 c241 4042 4d3d 86e6 c841 ff60 323e
00000020: f4d2 323e 5b4e c741

fc4.weight f4 [1, 10]
15.0160475 -0.4778854 14.97155 -0.4519636 15.19744 -0.31883615 14.959666 -0.014569778
-0.5008625 15.248374
00000000: bb41 7041 65ad f4be 788b 6f41 c667 e7be
00000010: b728 7341 7e3e a3be cb5a 6f41 14b6 6ebc
00000020: 8638 00bf 57f9 7341
