models/face_detection_proc_delay_edge.pth (torch, 2263 bytes, 5 tensors)

fc1.weight f4 [5, 2]
00000000: aee6 2cbf 581e 28bf 42e5 58bf 3454 4bbe
00000010: ba53 a73d 5887 f73e 5edd c4be c0a9 b8be
00000020: ec22 a1be 0ad0 163d
-0.6753949 -0.656713 -0.8472482 -0.1985634 0.081702664 0.48345447 -0.3845014 -0.3606701
-0.31471956 0.036819495

fc1.bias f4 [5]
00000000: f20b ba3e 5455 2fbe 9cec 80bf a3c8 20bf
00000010: 08fb 2fbf
0.3633724 -0.17122394 -1.0072207 -0.6280615 -0.6874242

fc2.weight f4 [5, 5]
00000000: ac9d fcbe 2a56 313f 4b57 b33e 08d5 2abe
00000010: 1c70 d53d b836 1dbf 30f1 393f 0ab6 0cbf
00000020: 0a8f 333f 5201 1e3f 9ff3 1ebf 4843 a03e
00000030: ef9b 8a3e fd9c e9be fc85 a93e 8ce4 03bf
00000040: 50cb f83e fca0 a73e b4ed ca3e f97f 263e
00000050: c775 2cbf 20de 8ebc 9c26 fabe 803b 12bc
00000060: e4d7 38be
-0.49339044 0.692721 0.35027537 -0.16682827 0.10421774 -0.6141162 0.7263365 -0.5496527
0.70140135 0.61720765 -0.62090486 0.31301332 0.27072093 -0.45627585 0.33110034 -0.5152061
0.48592615 0.3274001 0.39634478 0.16259755 -0.67367214 -0.017439902 -0.48857582 -0.008925319
-0.18051106

fc2.bias f4 [5]
00000000: 53ca a53e fa19 8abe e0cf 6dbf 6b0c 0ebf
00000010: 751e b2be
0.32380924 -0.26972944 -0.9289532 -0.554877 -0.34788862

fc3.weight f4 [1, 5]
00000000: 2c15 b03e c005 3f3d acc2 313f 1556 b23e
00000010: a019 9d3e
0.34391153 0.046636343 0.6943767 0.348313 0.30683613
