models/gender_classification_cpu_edge.pth (torch, 3535 bytes, 7 tensors)

fc1.weight f4 [10, 3]
00000000: a022 01bf 5bbf a7be 1840 89bd 2c91 75bd
00000010: 13b2 1bbf b33d 04bf 2599 e7bd 2376 83be
00000020: 1513 42bf 55e7 65be 3c0f 913d 66e6 f7be
00000030: 826c b2be 397f 08bf 1cdb 9f3e 6038 02be
00000040: 2780 b3be becb 13bf 8d7f 14bf c080 1dbd
00000050: 8a28 77be 3de0 2bbf 2b93 b7be d605 6fbe
00000060: 3e5d 2fbb ce31 14bc ef96 973f 4657 a3be
00000070: 69e1 99be 888e 1d3e
-0.5044346 -0.3276318 -0.06701678 -0.0599529 -0.60818595 -0.51656646 -0.11308507 -0.2567607
-0.75810367 -0.22451527 0.07082984 -0.48417968 -0.3484841 -0.53319126 0.31221855 -0.12716818
-0.3505871 -0.5773276 -0.5800713 -0.038452864 -0.24136558 -0.67139035 -0.35854468 -0.2334207
-0.0026758458 -0.0090450775 1.1842936 -0.31902522 -0.30054787 0.15386403

fc1.bias f4 [10]
00000000: 3a17 54be e2e2 763e b350 a63e 9a4a 27bf
00000010: 6bf5 c8be 2491 f1bd 08d0 02be e235 8e3e
00000020: 060c 20be 7419 b4be
-0.20711985 0.24109986 0.32483444 -0.6534821 -0.3924974 -0.117952615 -0.1277467 0.27775484
-0.15629587 -0.3517567

fc2.weight f4 [10, 10]
00000000: 3099 f63e 0948 4bbe d056 803d 9fc5 0b3d
00000010: 464b e3be ec98 f03e 4a89 853e a8d9 ee3e
00000020: 2fa1 9bbf e3ab e83e 685a 02bf 7e28 ccbe
00000030: ae04 be3e 83cb 5c3e c286 003f a0a1 ef3d
00000040: f816 3c3e 801d d8bb 081f bebe c8b8 eabe
00000050: e055 a5bd e68c 3abf 1912 92bd b78b 40bd
00000060: e0de 013d a16e 8cbe 908d bbbd 4813 b13d
00000070: 3002 3bbe 52e0 33be 8049 e0bc de5b a53e
00000080: b162 ce3e dd18 753e a862 f73d 92e8 cb3e
00000090: 203a 4abd a05b 3f3e 56ef 1dbe a71c 6cbd
000000a0: 70ce e93d 05ec 693e b202 e5bd 6e64 18bf
000000b0: f6d8 d03e 7c06 be3e d729 96be 006f 2d3b
000000c0: 167d 8abd f44c f53e 9833 de3d f29d 6c3e
000000d0: b931 5f3d e5b7 a03e c0fc ea3e 7a83 d1be
000000e0: 8d0c 06bf f44e 3bbe e75f 55be b745 f4be
000000f0: 8017 db3e 9599 40bf 9250 ebbb 926b f8be
00000100: 24ed 3ebe accf d5be 3996 efbe 7663 3dbe
00000110: 5c83 73be 6010 05bd 4c64 fa3e 97c2 1a3f
00000120: 2bb5 363d fdec c7bc 9ab9 84be 5644 003f
00000130: 221e b13e d29d 0cbe a17f 56bf 4441 15be
00000140: 6088 e2bc 965d f2bd 4ee4 eebc e60b c03e
00000150: b6f2 56be 689a 923e 8a1c 25be b0cc 20be
00000160: 72f7 66bf 9fe5 ad3d 1024 733e b514 3dbb
00000170: fc05 9e3e 42d6 b8be e89b fd3e 6073 913d
00000180: b0e3 763e 2040 fcbe 4aa8 6cbe 6512 0dbe
0.48163748 -0.19851698 0.06266558 0.034124013 -0.44393367 0.4699167 0.26081306 0.46650434
-1.2158564 0.4544364 -0.509192 -0.39874643 0.37112945 0.21562009 0.50205624 0.117007494
0.18368137 -0.0065953135 -0.3713305 -0.45844102 -0.0807302 -0.72871244 -0.07132358 -0.047008242
0.03170669 -0.27428153 -0.0915786 0.08646256 -0.18262553 -0.1756604 -0.027378798 0.32296652
0.4030967 0.23935266 0.12079364 0.39825875 -0.04937184 0.18687296 -0.1542333 -0.057644513
0.11416328 0.2284394 -0.11182155 -0.59528244 0.40790528 0.37114322 -0.29328796 0.0026463866
-0.067621395 0.47910273 0.108496845 0.23107126 0.05449078 0.313903 0.45895958 -0.4092062
-0.523629 -0.18291837 -0.20837365 -0.47709438 0.42791367 -0.7523435 -0.0071812356 -0.4851957
-0.1864515 -0.41760004 -0.46794298 -0.18494973 -0.23780578 -0.03248632 0.48904645 0.6045317
0.04460637 -0.024404997 -0.25922853 0.5010427 0.34593302 -0.13732079 -0.83788496 -0.14575678
-0.02765292 -0.11834256 -0.029161599 0.37509078 -0.20991024 0.28633428 -0.16124168 -0.15703082
-0.9022132 0.084910624 0.23744226 -0.0028851454 0.3086394 -0.36100966 0.4953301 0.07102084
0.24110293 -0.49267673 -0.23111072 -0.13776548

fc2.bias f4 [10]
00000000: 1619 4b3f 58a6 af3d d8eb c5be 1d66 dabd
00000010: c3cf 08be 3c10 03bf bafb 28be 7adb b93e
00000020: 9330 41bd 34a8 88bd
0.79335153 0.085766494 -0.38656497 -0.10664008 -0.13360505 -0.51196647 -0.16502276 0.3630026
-0.047165465 -0.06672707

fc3.weight f4 [10, 10]
00000000: d8f5 f9be 81da 17bf 34fe a3bf 38ab 4abf
00000010: 47bd e2be 1e58 76be 9829 a4bd b4bc 8dbe
00000020: 9086 c23d 9552 15bd 8ed6 9ebd 975c 803e
00000030: 339b a6be 3d0a d63d 20ac 70be 8da7 b83e
00000040: 768b 003f f7f4 fb3e bec3 333f 3faf 26bd
00000050: 86d6 4ebe 4638 bc3d 752a c1be 1e78 b3be
00000060: 431d 4b3e 6fd5 303e b4bb 9dbe ad67 debe
00000070: fcc5 223f 77fb 683e fddc 003f 8628 35be
00000080: fb67 ecbf 5833 5c3e 378b 803f 650b 32be
00000090: 92ee e1bd 9f86 1dbf 18bf 4abe 481f 6abe
000000a0: 310f 3dbe bd05 8e3e ffe2 913d be19 f1be
000000b0: 79cf 123f e3c2 0cbf ddf6 43be e0ac 5d3e
000000c0: 9abf 933d a4dc 20be d448 063f 9cab c63e
000000d0: fec1 7fbe e6c6 edbe 822d 0dbf e9f8 02bf
000000e0: 54a3 02bf f0bb 94bc aa05 a53d 256b 803d
000000f0: a279 2cbf 7b6e 793e 0b28 8a3e ddd1 78be
00000100: adf2 28bf 2e63 343e bb67 0dbd bd7f 1cbf
00000110: b11a e4be 7c0e b7be 1fbc 15bf e810 97bf
00000120: bc49 c2be 6830 a2be e910 3f3e df81 be3e
00000130: 11e4 04bf 7c19 e33e f59e a0bd e251 353e
00000140: fbda d9bd 1c4f 03bf 55e0 a6be 8bf3 7c3e
00000150: d861 c43d 681e b3bf 2efb 95bd f2f1 bf3e
00000160: 0a5f a5be 219f 94bd d2a3 68bf 7ac2 70bd
00000170: 3a52 9d3d e94c 7f3d 5ff2 213e e800 dbbd
00000180: b2a5 523e 2341 20bf b0ff 0a3e bf76 4a3d
-0.48820376 -0.59317786 -1.2811952 -0.7916751 -0.44285032 -0.24057052 -0.08015746 -0.27683032
0.09498322 -0.03645571 -0.07755767 0.2507064 -0.32540283 0.104511715 -0.2350316 0.3606533
0.502128 0.4921033 0.70220554 -0.04069447 -0.20199022 0.09190421 -0.37727705 -0.3505258
0.19835381 0.17268918 -0.3080727 -0.43438473 0.6358335 0.22752176 0.503372 -0.1769124
-1.8469232 0.21503961 1.0042485 -0.17387159 -0.11031832 -0.6153354 -0.19799459 -0.22863495
-0.18462826 0.27738753 0.07123374 -0.47089952 0.5734783 -0.54984874 -0.1913714 0.21647978
0.072142795 -0.15709168 0.52454877 0.38802803 -0.24976346 -0.4644081 -0.55147564 -0.51161057
-0.5103047 -0.018156022 0.08057721 0.06270436 -0.67373097 0.24358551 0.26983675 -0.24298806
-0.65995294 0.17615959 -0.034522753 -0.61132413 -0.44551614 -0.35753238 -0.58490175 -1.1802034
-0.3794688 -0.31677556 0.18658794 0.3720846 -0.519105 0.4435538 -0.07842819 0.17707017
-0.1063747 -0.51292586 -0.32593027 0.2470228 0.09588975 -1.3993654 -0.07323299 0.37489277
-0.32299072 -0.07256914 -0.9087497 -0.058779217 0.07681699 0.062329207 0.15815113 -0.10693532
0.2057102 -0.6259939 0.135741 0.04942965

fc3.bias f4 [10]
00000000: 53fc 92be 45e0 9bbe 9831 e63e 09b1 1cbc
00000010: 1bad 33be 2ce5 a8bd 7a7c b23e 11cc 91be
00000020: 0458 48be 0017 2d3f
-0.28708133 -0.30444542 0.44959712 -0.009563693 -0.17546503 -0.08246836 0.34860593 -0.28476003
-0.19564825 0.6761322

fc4.weight f4 [1, 10]
00000000: 706b 593d 8cb2 ae3d cb74 343e b807 f8bd
00000010: 7064 99be 3808 cebe 1783 343e c405 a2bd
00000020: 9890 d5bc 8587 713f
0.053080976 0.08530149 0.17622678 -0.12110847 -0.2995944 -0.40240645 0.17628132 -0.07911256
-0.026069924 0.9434741
