models/gender_classification_cpu_server.pth (torch, 3535 bytes, 7 tensors)

fc1.weight f4 [10, 3]
0	0xbe817453	-0.2528406
1	0xbe09d55b	-0.13460295
2	0x3e126adf	0.1429858
3	0xbab882f6	-0.0014077115
4	0x3e9c9cac	0.3058828
5	0x3e5404eb	0.20705001
6	0x3e9024e8	0.28153157
7	0x3ebd2d54	0.36948645
8	0xbfb14e51	-1.3852025
9	0x3a8cf62c	0.0010754517
10	0x3e17880d	0.14797993
11	0xbfe0ccb3	-1.7562469
12	0xbebdbc6a	-0.3705781
13	0x3dd5a292	0.104313985
14	0xbf0229fd	-0.5084532
15	0xbe11798c	-0.14206523
16	0xbf1677e9	-0.5877672
17	0x3e5ef1c6	0.21771917
18	0x3c6a0f49	0.014285871
19	0xbe5e05c8	-0.21681893
20	0x3fd310ce	1.6489503
21	0x3e397e8a	0.18114677
22	0x3ee94533	0.45560607
23	0x3fb4eacd	1.4134156
24	0xbf4b2e38	-0.793674
25	0x3deab6b7	0.11460631
26	0x3d3883b6	0.045047484
27	0xbefe34ba	-0.49649602
28	0xbe8aba61	-0.2709532
29	0xbf112069	-0.5669008

fc1.bias f4 [10]
0	0xbf0f4649	-0.5596662
1	0xc02a805e	-2.664085
2	0x3f1b26ef	0.6060628
3	0x3fbe4b4d	1.486673
4	0xbf1566d7	-0.58360046
5	0xbf0dd7f4	-0.55407643
6	0x3f4daab3	0.8033859
7	0xbf5b93ee	-0.857726
8	0xbf0374cd	-0.513501
9	0x3eff269c	0.49834144

fc2.weight f4 [10, 10]
0	0x3da31ac8	0.079640925
1	0xbef5661b	-0.47929463
2	0xbee4d417	-0.44693062
3	0xbe9b0300	-0.30275726
4	0x3eae2f50	0.34020472
5	0xbda0c7b8	-0.07850593
6	0x3e022ee4	0.127132
7	0xbf2702bc	-0.6523855
8	0x3eaf955e	0.34293646
9	0x3d022e50	0.03178245
10	0x3ea9f143	0.3319188
11	0xbf3831bd	-0.71950895
12	0x3e9580aa	0.29199725
13	0x3ced00bb	0.028931012
14	0xbe820048	-0.2539084
15	0x3e8e7728	0.27825284
16	0xbf856363	-1.0420955
17	0xbec256f1	-0.37956956
18	0xbe69e448	-0.22840989
19	0x3ec7b53e	0.39005464
20	0x3ef12440	0.4709797
21	0xbecbe430	-0.3982253
22	0xbdaaacec	-0.083337635
23	0xbe7961e0	-0.24353743
24	0xbeb3c6b2	-0.3511253
25	0x3ed263f0	0.4109187
26	0xbe0e4c00	-0.13896179
27	0xbebc2664	-0.3674804
28	0xbe826d62	-0.25474077
29	0xbea1ca47	-0.31599638
30	0x3f0a1512	0.539384
31	0x3eb6fec5	0.3574125
32	0xbe910275	-0.28322187
33	0xbf150b40	-0.5822029
34	0xbe626758	-0.22109735
35	0xbd515d10	-0.051114142
36	0xbf0fd158	-0.5617881
37	0xbc8a6ca6	-0.01689751
38	0xbdd7fc8c	-0.10546216
39	0xbe79e8aa	-0.2440516
40	0x3ebd1286	0.36928195
41	0xbe0b8940	-0.13626575
42	0xbe29a9c3	-0.16568665
43	0xbebfef9a	-0.3748749
44	0x3d862c38	0.06551403
45	0xbb061700	-0.0020460486
46	0xbd1b78ec	-0.037957117
47	0xbf3f65ea	-0.74764884
48	0x3db949d8	0.09047288
49	0x3e44985c	0.19198745
50	0xbeda51ee	-0.42640632
51	0x3ecf2290	0.40456057
52	0xbe253f75	-0.16137488
53	0xbd3af7b1	-0.045646373
54	0x3eb5c5ff	0.35502622
55	0xbebd1f78	-0.3693807
56	0xbeab6c84	-0.33481228
57	0xbec208b7	-0.37897274
58	0xbea0b51b	-0.31388173
59	0x3eb9fdb0	0.3632636
60	0xbf05dc6f	-0.5228948
61	0xbec4aebc	-0.38414562
62	0xbefa0d15	-0.48838106
63	0xbed132b9	-0.4085901
64	0x3f05fd82	0.5233995
65	0xbeac57a0	-0.33660603
66	0xbdbd56e0	-0.09245086
67	0xbe40c822	-0.18826345
68	0x3b1f0a00	0.0024267435
69	0xba095c00	-0.00052398443
70	0x3ee46c4c	0.44613874
71	0x3dc3325d	0.095310904
72	0x3e88ee53	0.26744327
73	0x3f31b84f	0.6942186
74	0x3e4d32b2	0.2003887
75	0x3a608f19	0.0008566245
76	0xbdf7a913	-0.12092795
77	0xbed50d0f	-0.41611525
78	0xbe153ea0	-0.14574671
79	0x3eb8e67a	0.3611334
80	0x3c855b00	0.016278744
81	0x3e0fc560	0.14040136
82	0x3d17cf00	0.037062645
83	0xbf032b95	-0.51238376
84	0x3e8dd850	0.27704096
85	0x3d4e0810	0.050300658
86	0xbd1fa630	-0.038976848
87	0xbe86d471	-0.26333955
88	0xbeae709e	-0.34070295
89	0xbdb8bc50	-0.09020293
90	0xbd410e39	-0.047132704
91	0xbf427d60	-0.7597256
92	0xbd8a3b4e	-0.06749593
93	0x3e8b0ae7	0.27156755
94	0x3dd06bcf	0.10176813
95	0x3db74b54	0.089499146
96	0x3e8064ee	0.25077003
97	0x3dabc580	0.083872795
98	0xbd09c035	-0.03363057
99	0xbe7ed4b8	-0.24885833

fc2.bias f4 [10]
0	0xbe9241ae	-0.28565735
1	0x3e743b33	0.23850708
2	0x3bad6cc0	0.005292505
3	0xbed00199	-0.4062622
4	0x3d8a4960	0.067522764
5	0x3c9d92da	0.019235063
6	0x3e7bdbb6	0.24595532
7	0x3edba14b	0.42896494
8	0xbdccadda	-0.09994097
9	0x3ed62270	0.4182315

fc3.weight f4 [10, 10]
0	0x3ec024c6	0.37528056
1	0x3e99fffe	0.3007812
2	0xbecfffbe	-0.40624803
3	0xbeae6f70	-0.34069395
4	0xbe9c980c	-0.30584753
5	0x3f14c51e	0.58113277
6	0xbe84c686	-0.2593271
7	0xbeee496b	-0.46540388
8	0xbef6635b	-0.48122677
9	0xbe043644	-0.12911326
10	0x3ea15354	0.31508887
11	0xbe6455e7	-0.22298394
12	0x3e6a4b24	0.22880226
13	0xbf598c91	-0.8498011
14	0xbf004e99	-0.5011993
15	0xbf054b51	-0.5206805
16	0x3ea24c26	0.31698722
17	0xbd311c98	-0.04324016
18	0x3f00a01e	0.5024432
19	0xbf195888	-0.5990071
20	0xbe8e8799	-0.27837828
21	0xbf6502b6	-0.8945726
22	0x3e9f6dfa	0.31138593
23	0x3d2b3fd7	0.04180893
24	0xbe3e9be3	-0.18614154
25	0xbe035902	-0.12826923
26	0x3ebf6554	0.37381995
27	0xbed2a8a0	-0.41144276
28	0x3ec3526c	0.3814882
29	0x3e2822a0	0.16419458
30	0xbf014f86	-0.5051197
31	0x3cbbd995	0.0229309
32	0xbdd6b620	-0.10483956
33	0x3e25a4ce	0.16176149
34	0xbe3ee4d9	-0.18641986
35	0xbeb41e26	-0.3517925
36	0xbdc0050c	-0.093759626
37	0xbf084283	-0.5322649
38	0x3d92cc48	0.0716787
39	0x3e9edd71	0.3102832
40	0xbee0a2b4	-0.43874133
41	0xbf2d8678	-0.6778331
42	0x3db6fbc8	0.08934742
43	0x3df4184f	0.11918699
44	0xbf024e7c	-0.5090101
45	0xbf0026ae	-0.5005902
46	0x3e7fa900	0.24966812
47	0xbd7459e9	-0.059656058
48	0x3cf8bf60	0.030364692
49	0xbf4781be	-0.77932346
50	0xbc94c42c	-0.018159948
51	0xbd68cd69	-0.05683652
52	0x3ef67d28	0.48142362
53	0xbc90da66	-0.017682265
54	0xbe9535d0	-0.29142618
55	0xbe861134	-0.26185
56	0xbe637cb0	-0.22215533
57	0xbe45c30b	-0.19312684
58	0x3dedf8a8	0.11619693
59	0x3ebebf61	0.37255386
60	0x3e9baec4	0.30406773
61	0x3ba3a5d7	0.004994135
62	0x3cbd0820	0.023075163
63	0x3e1b558d	0.15169354
64	0x3efbbc10	0.49166918
65	0x3e4b94e7	0.1988102
66	0xbc052080	-0.008125424
67	0xbf558c26	-0.83416975
68	0x3d8b3808	0.067977965
69	0xbf0e4cee	-0.55586135
70	0x3ecef95e	0.40424627
71	0xbdd1934f	-0.10233175
72	0xbd01c410	-0.03168112
73	0x3ee1e537	0.4412019
74	0x3e133238	0.14374626
75	0x3e7efbd8	0.24900758
76	0x3e84e428	0.2595532
77	0x3ef1eb7b	0.4724997
78	0xbeaa65c8	-0.33280778
79	0xbeae6bcf	-0.34066626
80	0xbef3fbc7	-0.47653028
81	0x3ebbe9ea	0.367019
82	0x3dd97af0	0.106191516
83	0xbf024b95	-0.5089658
84	0x3f00d0fb	0.5031888
85	0x3ea345cb	0.31889185
86	0xbdae34e0	-0.08506179
87	0xbf399bf7	-0.7250361
88	0x3f063c66	0.5243591
89	0x3d99202a	0.07476838
90	0xbdbebf06	-0.093137786
91	0x3ebbad77	0.3665578
92	0xbec94904	-0.3931352
93	0xbe8450ea	-0.25842983
94	0xbef07e89	-0.4697154
95	0xbdec6cb1	-0.11544169
96	0x3ea0a59c	0.3137635
97	0xbfc4d2d6	-1.5376842
98	0xbe201caa	-0.15635934
99	0x3e369dc6	0.17833623

fc3.bias f4 [10]
0	0xbf0f0681	-0.558693
1	0xbf23ca28	-0.6398034
2	0x3ee3f7e3	0.4452506
3	0x3e8aec10	0.27133226
4	0xbef7c820	-0.4839487
5	0xbef00e90	-0.4688611
6	0x3ec0056d	0.3750414
7	0x3eb57b65	0.35445705
8	0x3e9b908e	0.30383724
9	0xbd94db25	-0.07268361

fc4.weight f4 [1, 10]
0	0x3e294d7d	0.16533466
1	0xbe7ec0d0	-0.2487824
2	0x3e99c55c	0.30033386
3	0x3eaa7822	0.3329478
4	0x3e21ea1c	0.15811962
5	0xbe92d7fb	-0.28680405
6	0x3ecaf642	0.39641005
7	0xbe2f4f88	-0.17120183
8	0x3dee2271	0.11627663
9	0xbe841421	-0.25796607
